gradpu_medshapepelvic_ckpt.pth (torch, 401418 bytes, 247 tensors)

feature_extractor.conv_init.0.weight f4 [32, 3, 1]
0.08541822 -0.095227875 -0.9770778 -0.79250526 -0.1463127 0.03334109 -0.069416724 0.074790016
0.754776 0.03923377 0.64402103 -0.45237184 0.21444693 0.19549538 0.660015 -0.42576167
0.58685106 -0.4824327 -0.37583244 0.27017164 0.27896246 -0.2009551 -0.6552548 -0.25882348
-0.217738 0.4584439 0.22804777 -0.44087577 0.3875254 0.8113966 0.031745598 0.51433253
-0.3050426 -0.28228816 0.13138662 -0.7131601 -0.26386765 0.34534368 -0.3006214 0.21596883
0.2519046 0.43898448 0.38682985 -0.25654575 -0.27538794 -0.27066952 0.14840384 0.74228185
0.25230575 0.48899436 0.4683561 0.041936163 -1.0271845 0.006134718 0.8391549 0.18564318
-0.031257365 -0.39477506 0.24846748 0.27747095 0.30298463 -0.40686443 0.34624007 0.22151835
-0.09918481 0.5132394 0.19179574 0.63111335 0.2513551 -0.046905626 -0.6791948 0.47666085
-0.043666456 1.1924222 -0.0050756475 -0.7019987 -0.16788173 0.028988946 -0.33108294 -0.63467103
-0.6107516 -0.29189947 -0.5539062 0.58708495 0.22532572 -0.11508505 0.35603544 0.24557938
0.47618306 -0.5003399 -0.24180585 0.098046914 -0.5361536 -0.061701223 1.2928638 -0.008389624
00000000: bfef ae3d d506 c3bd c521 7abf a0e1 4abf
00000010: ffd2 15be ab90 083d 5b2a 8ebd 822b 993d
00000020: 0039 413f 97b3 203d 90de 243f 489d e7be
00000030: fa97 5b3e f12f 483e bef6 283f 6ffd d9be
00000040: df3b 163f 6b01 f7be 1c6d c0be f053 8a3e
00000050: 2bd4 8e3e 2cc7 4dbe c7be 27bf 8384 84be
00000060: b6f6 5ebe 29b9 ea3e 5b85 693e 78ba e1be
00000070: bb69 c63e b0b7 4f3f ac07 023d 4cab 033f
00000080: 8b2e 9cbe 1388 90be 378a 063e a991 36bf
00000090: a919 87be e3d0 b03e 0ceb 99be ef26 5d3e
000000a0: a4f9 803e 93c2 e03e 900e c63e f759 83be
000000b0: a6ff 8cbe 3295 8abe 2df7 173e 2f06 3e3f
000000c0: 382e 813e 785d fa3e 5fcc ef3e 41c5 2b3d
000000d0: c87a 83bf bf05 c93b dbd2 563f 3f19 3e3e
000000e0: b907 00bd f51f cabe 426e 7e3e ac10 8e3e
000000f0: cd20 9b3e 8950 d0be 6146 b13e b5d5 623e
00000100: 6821 cbbd a863 033f 1a66 443e a590 213f
00000110: 9eb1 803e 1d20 40bd b6df 2dbf e40c f43e
00000120: 99db 32bd 4aa1 983f 9e51 a6bb 30b6 33bf
00000130: 30e9 2bbe 3a7a ed3c b483 a9be cd79 22bf
00000140: 385a 1cbf d973 95be cccc 0dbf 334b 163f
00000150: c9bb 663e b6b1 ebbd 474a b63e 2979 7b3e
00000160: 44ce f33e 4716 00bf f49b 77be d2cc c83d
00000170: 5d41 09bf 6cba 7cbd 907c a53f a274 09bc

feature_extractor.conv_init.0.bias f4 [32]
0.3498574 -0.4894007 -0.39123043 -0.11714846 0.22057392 -0.71681434 -0.08933759 -0.11376308
-0.23216195 0.5178318 0.5187244 0.5457624 0.2475709 0.41040605 0.36853543 0.3573391
-0.5409439 0.6132785 -0.38106734 0.20112042 0.49298468 0.2130619 0.5894127 0.5118765
0.42916766 0.1855194 -0.39465302 0.75439894 -0.121101506 0.18114811 0.08723035 0.654588
00000000: 8220 b33e bb92 fabe 5b4f c8be 88eb efbd
00000010: 21de 613e 2581 37bf a0f6 b6bd 9efc e8bd
00000020: ddbb 6dbe a090 043f 1fcb 043f 16b7 0b3f
00000030: 3a83 7d3e be20 d23e adb0 bc3e 27f5 b63e
00000040: 4d7b 0abf d2ff 1c3f 421b c3be 83f2 4d3e
00000050: 7d68 fc3e e62c 5a3e c0e3 163f 570a 033f
00000060: ddbb db3e ccf8 3d3e f60f cabe 4a20 413f
00000070: 1104 f8bd e47e 393e d3a5 b23d 1493 273f

feature_extractor.conv_init.1.weight f4 [32]
0.6711887 0.36220333 0.7983281 0.6501418 0.41862577 0.66536736 0.4224754 0.6970253
0.2625109 0.3968699 0.264943 0.5525099 0.7125897 0.5362193 0.67027736 0.36047608
0.6668232 0.64956874 0.5689411 0.5526112 0.8987247 0.95364606 0.72521716 0.7687066
0.53019243 0.43575493 0.6963013 0.84476906 0.4175229 0.74634963 0.6597621 0.46316552
00000000: 06d3 2b3f b772 b93e 3b5f 4c3f b16f 263f
00000010: 1e56 d63e 8455 2a3f b24e d83e 4070 323f
00000020: d467 863e 8832 cb3e 9ca6 873e 4a71 0d3f
00000030: 476c 363f ab45 093f 4c97 2b3f 5290 b83e
00000040: edb4 2a3f 234a 263f 20a6 113f ed77 0d3f
00000050: d212 663f 2622 743f d5a7 393f f5c9 443f
00000060: b1ba 073f 451b df3e cd40 323f c942 583f
00000070: 90c5 d53e c510 3f3f 2be6 283f 0824 ed3e

feature_extractor.conv_init.1.bias f4 [32]
0.12416122 -0.055937726 -0.14662401 -0.01604359 -0.69417393 -0.058730144 -0.081925124 -0.023312237
-0.49546877 -0.69355464 -0.3278689 -0.03748156 -0.06360233 -0.8609289 0.12227859 -0.72921884
-0.018543294 0.11825087 0.09433034 -0.09192869 0.08106981 0.057049766 0.023443082 0.018051302
-0.1017971 -0.070709616 0.019988326 -0.071368515 -0.6252107 0.06416596 -0.03724054 -0.078517556
00000000: 3d48 fe3d f51e 65bd 9b24 16be d96d 83bc
00000010: 62b5 31bf 058f 70bd 5cc8 a7bd 4ef9 bebc
00000020: 15ae fdbe cc8c 31bf 6fde a7be 4486 19bd
00000030: f041 82bd d665 5cbf 336d fa3d 16ae 3abf
00000040: 1be8 97bc 832d f23d 4430 c13d 1c45 bcbd
00000050: ee07 a63d 04ad 693d b50b c03c 53e0 933c
00000060: ff7a d0bd 34d0 90bd 8fbe a33c a829 92bd
00000070: cf0d 20bf 7169 833d 8989 18bd d0cd a0bd

feature_extractor.conv_init.1.running_mean f4 [32]
0.35078153 -0.48941457 -0.3913366 -0.11711012 0.22020046 -0.7167388 -0.08906184 -0.11344461
-0.23231192 0.51741844 0.51886404 0.54556596 0.24806578 0.41025943 0.3690848 0.35700855
-0.5413799 0.61320686 -0.3810671 0.2010368 0.49235728 0.21292366 0.58897597 0.51158077
0.4302097 0.18542247 -0.39483437 0.75436 -0.12146571 0.18146455 0.08846603 0.6546247
00000000: a399 b33e 8c94 fabe 455d c8be 6ed7 efbd
00000010: 3b7c 613e 327c 37bf 0e66 b6bd a655 e8bd
00000020: 2de3 6dbe 8975 043f 46d4 043f 36aa 0b3f
00000030: f504 7e3e 860d d23e aff8 bc3e d3c9 b63e
00000040: e097 0abf 20fb 1c3f 3a1b c3be 97dc 4d3e
00000050: 4116 fc3e a908 5a3e 21c7 163f f5f6 023f
00000060: 7244 dc3e 63df 3d3e bb27 cabe bd1d 413f
00000070: 04c3 f8bd d8d1 393e ae2d b53d 7c95 273f

feature_extractor.conv_init.1.running_var f4 [32]
0.10249944 0.08573994 0.061202426 0.06546523 0.055934373 0.08396511 0.034858823 0.058597118
0.03434665 0.11189511 0.037864912 0.06513259 0.030975735 0.033274736 0.034997884 0.07039453
0.057339527 0.11280177 0.09714629 0.035501745 0.041791324 0.034856867 0.054386433 0.07284792
0.15201071 0.06851258 0.09727788 0.08007533 0.021183973 0.05835538 0.03854302 0.1788533
00000000: 3aeb d13d 6c98 af3d 65af 7a3d a212 863d
00000010: 711b 653d e6f5 ab3d 20c8 0e3d 8803 703d
00000020: 13af 0c3d 4329 e53d 3d18 1b3d 3c64 853d
00000030: d3c0 fd3c 174b 083d f159 0f3d 022b 903d
00000040: dadc 6a3d 9d04 e73d a2f4 c63d 476a 113d
00000050: 612d 2b3d 13c6 0e3d 4fc4 5e3d 4a31 953d
00000060: b2a8 1b3e 5350 8c3d a039 c73d 89fe a33d
00000070: 038a ad3c 0d06 6f3d 49df 1d3d 5225 373e

feature_extractor.dense_blocks.0.0.dense_layers.0.conv_bottle.0.weight f4 [32, 32, 1]
-0.13753317 -0.40521422 0.15928963 -0.20027907 -0.07271738 -0.31707394 -0.021684729 0.1246857
-0.24228965 -0.07531729 -0.31883985 -0.30504262 -0.5751267 0.16176684 0.21273792 0.017770665
0.21782081 0.09223034 0.1636748 -0.23773333 0.16566613 0.16417477 0.10732231 -0.039617453
-0.08609045 -0.27526966 0.024468085 0.04831636 0.26680702 -0.2981908 -0.15592921 -0.057663072
0.02787767 -0.09135865 0.20988266 -0.094344266 0.2444522 0.019970857 0.15443237 0.073366635
-0.17797138 -0.12215377 0.04752693 0.12356768 -0.03481301 0.50587827 0.14893712 -0.05431655
0.21846952 0.11409631 0.06365679 -0.047147714 0.10657503 0.3805976 0.33136532 0.09990645
0.15138698 -0.23219216 0.12430077 -0.019258209 0.20405044 -0.092572615 0.27028295 0.06411282
-0.26919448 0.05840638 0.17651379 0.02767132 -0.033551954 0.12461126 -0.076664425 0.18484153
0.04105179 -0.2029344 -0.10992072 -0.020984273 -0.2125 0.16154943 -0.104995616 -0.067520544
0.2849852 -0.1833598 0.16761367 -0.14275002 0.23875943 0.4916958 0.14422059 -0.14945303
0.144204 -0.01541667 -0.14475952 -0.04967743 0.14610854 0.13615373 0.26710242 0.20185722
-0.46347696 0.1992965 0.030946586 -0.30855992 0.034329876 -0.1791066 -0.0069444403 0.03386025
0.022827994 -0.24409243 -0.08223301 -0.1409104 -0.2493892 0.07299792 0.039670438 -0.15732016
0.3326398 -0.2804805 0.14672332 -0.027543304 0.10881132 0.13182747 0.29518142 -0.12807864
0.0011011028 0.17866242 0.030327078 -0.027635507 0.15628308 -0.1984711 -0.2492101 0.15450624
-0.019944271 0.0047962847 0.23502015 -0.10980238 0.3679425 0.054899607 0.4001432 -0.12831753
0.1842414 0.30852136 0.07392401 0.2754002 0.10360103 0.14974527 -0.30208594 0.33090678
-0.08751832 -0.25274387 -0.3184823 0.43132386 -0.07460945 -0.10472954 -0.039380416 0.121722914
0.031015335 -0.11764325 -0.042528022 -0.12412072 -0.07790648 0.12965211 0.2989895 0.1784514
-0.057399027 0.13321188 0.2616576 -0.084683314 0.10607911 0.22211087 0.18674085 0.015778005
0.12775911 0.23133372 0.25234798 0.24754944 0.18132986 0.03226976 -0.01008712 0.15367378
-0.2182638 -0.26509482 -0.6225003 0.31332114 -0.24882019 -0.0789304 -0.16862845 0.09339991
-0.11161842 0.12470838 0.06928896 -0.07246431 -0.03329458 -0.13926928 0.028589176 -0.0053623444
0.09054441 -0.17702319 0.20924956 -0.028673155 -0.005986087 -0.00954067 0.04363142 0.012787635
-0.19425632 -0.05552875 -0.07116006 0.16912808 0.033340637 0.4145831 -0.0821965 -0.16314392
0.23683074 0.06837267 0.047893245 -0.04630856 0.1359424 0.5549918 0.35892856 0.19721106
0.13472235 -0.104268886 0.04609391 0.106778756 0.36845008 -0.004848623 0.09294136 -0.02188318
0.060037985 -0.019199759 -0.03814669 -0.037271008 -0.029639743 -0.1285675 0.046466198 0.2754938
0.03109596 -0.24670249 0.06912379 -0.092912816 -0.06463408 -0.116123505 0.57650876 -0.21171594
-0.022113545 0.089682385 0.22219239 -0.22409564 0.011322756 -0.0094099 0.1679297 -0.18289495
0.027631821 -0.0226809 0.30076876 -0.08643926 0.05377664 -0.097171 -0.20990512 -0.15453023
00000000: 7fd5 0cbe 3d78 cfbe d21c 233e f515 4dbe
00000010: daec 94bd 8457 a2be 2ca4 b1bc 375b ff3d
00000020: c71a 78be f43f 9abd fa3e a3be 8c2e 9cbe
00000030: 813b 13bf 35a6 253e f8d7 593e c993 913c
00000040: 6b0c 5f3e 43e3 bc3d 5e9a 273e 5e70 73be
00000050: 62a4 293e 6e1d 283e cdcb db3d e945 22bd
00000060: 3150 b0bd 25f0 8cbe 4b71 c83c 60e7 453d
00000070: ee9a 883e 77ac 98be e8ab 1fbe 1d30 6cbd
00000080: b65f e43c 3e1a bbbd 7beb 563e 9137 c1bd
00000090: ad51 7a3e ec99 a33c 8523 1e3e 3f41 963d
000000a0: 213e 36be c12b fabd 99ab 423d 0d11 fd3d
000000b0: 1698 0ebd 3d81 013f f982 183e 087b 5ebd
000000c0: 79b6 5f3e 54ab e93d 7e5e 823d f61d 41bd
000000d0: 0244 da3d b0dd c23e b7a8 a93e c19b cc3d
000000e0: 3005 1b3e c8c3 6dbe 6791 fe3d 64c3 9dbc
000000f0: 99f2 503e b696 bdbd 8762 8a3e 954d 833d
00000100: dcd3 89be 873b 6f3d 08c0 343e f7ae e23c
00000110: c66d 09bd 3034 ff3d 3d02 9dbd 1947 3d3e
00000120: ec25 283d 09ce 4fbe 1d1e e1bd 36e7 abbc
00000130: 9a99 59be 376d 253e f107 d7bd 3648 8abd
00000140: 95e9 913e acc2 3bbe eba2 2b3e 102d 12be
00000150: 5a7d 743e 8dbf fb3e 90ae 133e 370a 19be
00000160: 37aa 133e 3396 7cbc d73b 14be 907a 4bbd
00000170: 7a9d 153e e26b 0b3e a6c1 883e a9b3 4e3e
00000180: da4c edbe 6214 4c3e b283 fd3c 91fb 9dbe
00000190: 7c9d 0c3d b867 37be 308e e3bb 0cb1 0a3d
000001a0: c601 bb3c 5ef3 79be c869 a8bd d14a 10be
000001b0: e25f 7fbe ef7f 953d 787d 223d 8918 21be
000001c0: c44f aa3e 249b 8fbe a33e 163e 7fa2 e1bc
000001d0: 78d8 de3d c8fd 063e 0522 973e 0c27 03be
000001e0: e152 903a 48f3 363e 7e70 f83c dc63 e2bc
000001f0: ac08 203e 023c 4bbe ef30 7fbe e236 1e3e
00000200: 2b62 a3bc 272a 9d3b 1fa9 703e 12e0 e0bd
00000210: f662 bc3e 69de 603d 92df cc3e ac65 03be
00000220: c7a9 3c3e 83f6 9d3e 7965 973d 4101 8d3e
00000230: c72c d43d d356 193e 02ab 9abe 9d6c a93e
00000240: ce3c b3bd a567 81be 1d10 a3be 7bd6 dc3e
00000250: d7cc 98bd 717c d6bd 5c4d 21bd dd49 f93d
00000260: df13 fe3c f2ee f0bd dd31 2ebd 0133 febd
00000270: 6f8d 9fbd 86c3 043e 2715 993e f7bb 363e
00000280: 3e1b 6bbd b268 083e fcf7 853e 726e adbd
00000290: 0140 d93d 0871 633e fe38 3f3e e040 813c
000002a0: 49d3 023e bfe2 6c3e c133 813e 9a7d 7d3e
000002b0: 89ae 393e 4c2d 043d 7344 25bc a95c 1d3e
000002c0: 8c80 5fbe 82ba 87be 2e5c 1fbf a16b a03e
000002d0: b8ca 7ebe 43a6 a1bd f0ac 2cbe 7448 bf3d
000002e0: 3398 e4bd 1b67 ff3d 5fe7 8d3d 2b68 94bd
000002f0: e65f 08bd 9b9c 0ebe d933 ea3c 9bb6 afbb
00000300: 596f b93d 9145 35be 8445 563e f7e3 eabc
00000310: f026 c4bb 7850 1cbc dcb6 323d 3b83 513c
00000320: 21eb 46be 1d72 63bd 5ebc 91bd e92f 2d3e
00000330: 3190 083d 3c44 d43e a356 a8bd 330f 27be
00000340: c283 723e f806 8c3d b52b 443d 0bae 3dbd
00000350: 7c34 0b3e f113 0e3f 7cc5 b73e b2f1 493e
00000360: a8f4 093e ed8a d5bd f8cc 3c3d d2ae da3d
00000370: 7da5 bc3e 33e1 9ebb 0a58 be3d 5b44 b3bc
00000380: 64ea 753d d048 9dbc b43f 1cbd 7ca9 18bd
00000390: 0ccf f2bc 33a7 03be 5753 3e3d 860d 8d3e
000003a0: f4bc fe3c 949f 7cbe c690 8d3d 1349 bebd
000003b0: df5e 84bd 29d2 edbd 1496 133f 10cc 58be
000003c0: 7727 b5bc 66ab b73d 6786 633e 5479 65be
000003d0: 1583 393c fb2b 1abc c3f5 2b3e d048 3bbe
000003e0: 215c e23c 4bcd b9bc 5dfe 993e 1107 b1bd
000003f0: e544 5c3d 9701 c7bd 5ef1 56be 2c3d 1ebe

feature_extractor.dense_blocks.0.0.dense_layers.0.conv_bottle.0.bias f4 [32]
-0.095509015 -0.03278894 0.08612266 -0.14553295 0.047864627 0.15357299 -0.052329823 -0.0031787248
0.15198576 0.1912014 0.08344534 0.069105454 -0.045374718 -0.064624846 -8.556421e-05 0.12209132
0.061681673 -0.033122793 0.021877445 -0.08460308 0.07118644 -0.08142354 -0.07771797 -0.10021903
0.077462316 -0.051429365 0.07641807 -0.1334868 0.102002084 -0.031418797 0.07284892 -0.08527059
00000000: 3b9a c3bd b24d 06bd 1461 b03d 9706 15be
00000010: b30d 443d 3d42 1d3e cc57 56bd 2752 50bb
00000020: 28a2 1b3e 4dca 433e 64e5 aa3d 2987 8d3d
00000030: d7da 39bd 085a 84bd ef70 b3b8 040b fa3d
00000040: eca5 7c3d c4ab 07bd 5438 b33c 6144 adbd
00000050: 32ca 913d 63c1 a6bd 992a 9fbd a33f cdbd
00000060: 90a4 9e3d 99a7 52bd 1481 9c3d c4b0 08be
00000070: 78e6 d03d ffb0 00bd d131 953d 59a2 aebd

feature_extractor.dense_blocks.0.0.dense_layers.0.conv_bottle.1.weight f4 [32]
0.6646467 1.1025014 1.1263087 0.6464046 0.9799136 1.179677 1.1417186 0.8246536
0.7377797 1.141305 1.0357612 1.0767164 0.9643263 0.84566486 0.8670286 0.84653604
0.8940674 1.2513837 1.1099734 0.79822785 0.802615 0.54030836 0.8859759 0.6924238
0.8294343 1.0034151 1.2435066 1.1395301 0.8901351 1.0241009 0.88806206 1.1044902
00000000: 4926 2a3f c41e 8d3f e22a 903f c67a 253f
00000010: 9edb 7a3f a8ff 963f d623 923f 801c 533f
00000020: 21df 3c3f 4816 923f d393 843f d8d1 893f
00000030: 17de 763f 7e7d 583f 96f5 5d3f 96b6 583f
00000040: 9ae1 643f 572d a03f 9c13 8e3f a958 4c3f
00000050: 2d78 4d3f a651 0a3f 51cf 623f b042 313f
00000060: ce55 543f e86f 803f 392b 9f3f 1fdc 913f
00000070: e5df 633f bd15 833f 0958 633f ef5f 8d3f

feature_extractor.dense_blocks.0.0.dense_layers.0.conv_bottle.1.bias f4 [32]
0.030560065 -0.45582053 -0.19908404 -0.39928222 -0.20230007 0.25049135 -0.4992227 -0.18103132
-0.8560224 -0.4932129 0.013876637 -0.101070516 -0.110546984 -0.27750057 0.37972564 -0.27038118
-0.003405528 -0.68910515 0.1352032 -0.18216862 0.21085738 -0.4059932 -0.60715157 -0.037571494
-0.13362189 0.11096862 0.3841099 0.3722586 0.064878054 0.05763748 -0.06861898 0.3018778
00000000: 1a59 fa3c 4f61 e9be b0dc 4bbe b86e ccbe
00000010: c027 4fbe 6740 803e 1e9a ffbe 4660 39be
00000020: 4924 5bbf 6786 fcbe d65a 633c 0ffe cebd
00000030: 7566 e2bd 8e14 8ebe 666b c23e 676f 8abe
00000040: 472f 5fbb 3269 30bf b572 0a3e 698a 3abe
00000050: ffea 573e 57de cfbe 496e 1bbf 91e4 19bd
00000060: 2dd4 08be 8443 e33d 0eaa c43e ae98 be3e
00000070: c9de 843d 4715 6c3d 1c88 8cbd ba8f 9a3e

feature_extractor.dense_blocks.0.0.dense_layers.0.conv_bottle.1.running_mean f4 [32]
-0.31820872 0.616356 0.46602982 -0.35992998 0.012500583 -0.08042185 0.6447105 0.1947757
0.8403794 0.32286125 -0.28283212 0.5036247 -0.022164054 0.119233854 -0.59045565 0.1986468
-0.34211084 0.3830335 -0.37835947 -0.07573062 -0.3813564 -0.3449423 0.51354903 -0.7224632
0.2750839 -0.11648375 -0.05857523 -0.8628368 -0.63837916 -0.23404849 0.060500644 0.1268445
00000000: 41ec a2be 82c9 1d3f 769b ee3e be48 b8be
00000010: 3fcf 4c3c 36b4 a4bd bf0b 253f 4873 473e
00000020: 1b23 573f 124e a53e 5fcf 90be 8ced 003f
00000030: 6491 b5bc e130 f43d 1a28 17bf 116a 4b3e
00000040: 2729 afbe f81c c43e 55b8 c1be a818 9bbd
00000050: 2541 c3be 479c b0be f377 033f 59f3 38bf
00000060: ccd7 8c3e 088f eebd 95ec 6fbd dfe2 5cbf
00000070: d16c 23bf 68aa 6fbe 86cf 773d 86e3 013e

feature_extractor.dense_blocks.0.0.dense_layers.0.conv_bottle.1.running_var f4 [32]
0.8940465 0.22917765 0.34201458 0.49042374 0.3433083 0.39184737 0.37869182 0.2519219
0.38995075 0.33951458 0.3644972 0.18507263 1.0529003 0.42370832 0.50582373 0.5371704
0.3746479 0.12134688 0.6025907 0.44326323 0.36864868 0.7723171 0.2568862 0.93075156
0.21822803 0.22642368 0.34569657 0.30105165 0.73513263 0.25180197 0.47864196 0.20583938
00000000: 3be0 643f 8cad 6a3e 891c af3e d218 fb3e
00000010: 1bc6 af3e 38a0 c83e e5e3 c13e e8fb 803e
00000020: a0a7 c73e dbd4 ad3e 619f ba3e ae83 3d3e
00000030: 70c5 863f 4cf0 d83e aa7d 013f 0084 093f
00000040: d9d1 bf3e b784 f83d 6243 1a3f 66f3 e23e
00000050: 85bf bc3e 93b6 453f 9786 833e bc45 6e3f
00000060: 2b77 5f3e 9cdb 673e 24ff b03e 7123 9a3e
00000070: a731 3c3f 30ec 803e 8f10 f53e 8fc7 523e

feature_extractor.dense_blocks.0.0.dense_layers.0.point_conv.conv_delta.0.weight f4 [32, 3, 1, 1]
0.03632939 0.87627923 0.13937196 0.1587635 -0.2128541 -0.3117822 -0.33587 0.0041766977
-0.6065952 0.4396923 0.12487848 -0.569827 0.6651663 0.10991433 0.08888844 -0.023084896
0.036128744 1.0936807 -0.7552047 0.21607588 0.0744073 0.40437612 -0.7602131 0.4403807
0.023202952 -0.10915469 -0.6431867 0.6588943 -0.22056958 0.3313513 0.0057975026 -0.17891458
-0.8655419 -0.28607672 -0.41679472 0.69990575 -0.34402066 -0.45497036 0.14708892 -0.15328982
-0.9516009 -0.110615805 0.5835049 0.104646884 0.07020094 -0.04988428 0.031988423 0.6434289
-0.47736558 0.38073763 -0.11796498 -0.0459872 -0.54882014 -0.1661325 -0.5561437 -0.4545476
0.22702889 0.3844473 -0.4840325 -0.07308516 0.1179981 -0.41239166 0.24169134 0.19573382
0.22357252 -0.23151867 0.27433532 0.5389138 -0.0961816 -0.48985377 -0.62538797 -0.08215098
0.7622287 0.040918108 -0.13080691 -0.698645 -0.23401444 0.07416105 -0.76895905 0.003925288
-0.2254891 -0.029825892 0.24533962 0.5428349 0.1746755 0.73880863 -0.070962556 0.7576645
-0.12431259 0.119018085 -0.53104484 0.09536993 -0.26423097 0.38415945 -0.41833064 0.25016952
00000000: 20ce 143d d653 603f 86b7 0e3e e692 223e
00000010: 6df6 59be eba1 9fbe 27f7 abbe aedc 883b
00000020: d349 1bbf 591f e13e 4ac0 ff3d 2fe0 11bf
00000030: 5748 2a3f c41a e13d 240b b63d 891c bdbc
00000040: bcfb 133d bbfd 8b3f 1855 41bf ff42 5d3e
00000050: db62 983d 630a cf3e 539d 42bf 9479 e13e
00000060: 1e14 be3c 7e8c dfbd e2a7 24bf 4cad 283f
00000070: fedc 61be e1a6 a93e faf8 bd3b 6235 37be
00000080: 2794 5dbf a678 92be 1e66 d5be 062d 333f
00000090: 7a23 b0be e0f1 e8be 7a9e 163e 02f8 1cbe
000000a0: 1e9c 73bf 8a8a e2bd 9460 153f 1b51 d63d
000000b0: 83c5 8f3d 7553 4cbd 4b06 033d c2b7 243f
000000c0: 4369 f4be 0bf0 c23e a097 f1bd 135d 3cbd
000000d0: 7a7f 0cbf a31e 2abe 6f5f 0ebf 77ba e8be
000000e0: 437a 683e 47d6 c43e 1cd3 f7be acad 95bd
000000f0: fda8 f13d 0025 d3be ef7d 773e 726e 483e
00000100: 32f0 643e 3b13 6dbe ae75 8c3e 41f6 093f
00000110: dcfa c4bd 1dce fabe 6d19 20bf c63e a8bd
00000120: 6c21 433f bf99 273d 3ff2 05be 66da 32bf
00000130: 7ba1 6fbe c0e1 973d 80da 44bf b49f 803b
00000140: 9de6 66be 6e55 f4bc 4f3a 7b3e 3af7 0a3f
00000150: 22de 323e 9022 3d3f d154 91bd 4df6 413f
00000160: 9997 febd c1bf f33d 8ef2 07bf 4f51 c33d
00000170: 4849 87be 8cb0 c43e 6f2f d6be 3816 803e

feature_extractor.dense_blocks.0.0.dense_layers.0.point_conv.conv_delta.0.bias f4 [32]
-0.15590723 0.24950726 -0.15227178 0.37721604 -0.27531624 -0.017240688 0.07359675 0.043937985
-0.15380502 0.41406196 0.3139053 -0.27714178 -0.25227943 -0.22985135 -0.56823814 0.461968
-0.22719957 -0.19649716 -0.30179498 -0.23473911 -0.06215479 0.14634535 -0.45996428 0.52402955
-0.04403794 0.12538335 0.28667662 -0.6098616 -0.05491391 -0.06076528 0.23287591 -0.08914554
00000000: 25a6 1fbe d57e 7f3e 22ed 1bbe 7622 c13e
00000010: 40f6 8cbe 583c 8dbc e5b9 963d 51f8 333d
00000020: 107f 1dbe eeff d33e 32b8 a03e 87e5 8dbe
00000030: c52a 81be 275e 6bbe 0e78 11bf 1287 ec3e
00000040: 01a7 68be 8d36 49be df84 9abe 735f 70be
00000050: 0596 7ebd 8edb 153e 7080 ebbe cd26 063f
00000060: 2161 34bd 7e64 003e 47c7 923e e41f 1cbf
00000070: 68ed 60bd 04e5 78bd 0677 6e3e f091 b6bd

feature_extractor.dense_blocks.0.0.dense_layers.0.point_conv.conv_delta.1.weight f4 [32]
0.88721204 0.9879317 0.72084576 1.2254952 0.9395855 1.2606452 0.85077757 0.9561719
1.1167146 0.84185785 0.9421101 0.8433767 1.1189017 0.8999073 0.9811617 1.4509393
0.9082958 1.1088862 1.1980675 0.93392575 1.0302113 1.1633096 1.0433607 0.8030401
1.3711907 1.0137191 1.172691 0.9148666 1.2752761 0.7505394 1.4529822 1.3150179
00000000: 5420 633f 18e9 7c3f 5989 383f 07dd 9c3f
00000010: ad88 703f d25c a13f 8fcc 593f aec7 743f
00000020: 81f0 8e3f ff83 573f 212e 713f 89e7 573f
00000030: 2c38 8f3f 5360 663f 6a2d 7b3f 61b8 b93f
00000040: 1386 683f fcef 8d3f 475a 993f c215 6f3f
00000050: f7dd 833f 54e7 943f d88c 853f 0994 4d3f
00000060: 2d83 af3f 8cc1 813f bd1a 963f b334 6a3f
00000070: 3f3c a33f 5a23 403f 52fb b93f 8252 a83f

feature_extractor.dense_blocks.0.0.dense_layers.0.point_conv.conv_delta.1.bias f4 [32]
-0.2891555 -0.02828607 -0.2644135 0.024958303 -0.12253199 -0.069101885 -0.7081902 -0.14811486
-0.12984619 -0.10686434 -0.30462992 -0.17162232 0.047985524 -0.5195711 -0.24082603 0.22746602
-0.38765448 0.21479897 0.039823435 -0.4112638 -0.038310464 -0.32104653 -0.13865346 -0.61621916
0.097287 -0.58068675 -0.006158118 -0.21823716 0.043945253 -0.22093312 0.11940957 0.057613637
00000000: 310c 94be 30b8 e7bc 3561 87be 5b75 cc3c
00000010: 0df2 fabd 4a85 8dbd f44b 35bf 6cab 17be
00000020: 66f6 04be b1db dabd 74f8 9bbe c3bd 2fbe
00000030: 788c 443d 9d02 05bf 199b 76be daec 683e
00000040: a67a c6be 43f4 5b3e e61d 233d 2b91 d2be
00000050: 6feb 1cbd 3660 a4be 2cfb 0dbe 8ac0 1dbf
00000060: 683e c73d e3a7 14bf 0aca c9bb 9079 5fbe
00000070: f0ff 333d 4b3c 62be 018d f43d 47fc 6b3d

feature_extractor.dense_blocks.0.0.dense_layers.0.point_conv.conv_delta.1.running_mean f4 [32]
-0.15584195 0.24954246 -0.15223554 0.3772188 -0.27533472 -0.017133377 0.07360962 0.043864504
-0.15356956 0.4138658 0.31392178 -0.27712062 -0.25246918 -0.22984554 -0.5682306 0.46177799
-0.22716354 -0.19598903 -0.30167323 -0.23466058 -0.062474642 0.14637217 -0.4600064 0.5242295
-0.043923493 0.12540495 0.28657818 -0.6100005 -0.054737534 -0.06085147 0.23315886 -0.0893542
00000000: 0895 1fbe 0f88 7f3e a2e3 1bbe d322 c13e
00000010: acf8 8cbe 4c5b 8cbc a4c0 963d 44ab 333d
00000020: 5741 1dbe 38e6 d33e 5bba a03e c1e2 8dbe
00000030: a443 81be a15c 6bbe 9077 11bf 2a6e ec3e
00000040: 8f9d 68be 59b1 48be ea74 9abe dd4a 70be
00000050: 69e5 7fbd 96e2 153e f585 ebbe e833 063f
00000060: 1fe9 33bd 286a 003e 60ba 923e fe28 1cbf
00000070: 7734 60bd 643f 79bd 32c1 6e3e 56ff b6bd

feature_extractor.dense_blocks.0.0.dense_layers.0.point_conv.conv_delta.1.running_var f4 [32]
0.00088433747 0.00018836503 0.00054269773 0.00060253753 0.0005384772 0.0013349303 0.000722263 0.0010533218
0.00047509742 0.00068346376 0.0008713377 0.0008331959 0.00039362986 0.0010566168 0.0004148781 0.0004651465
0.00044323094 0.00037121915 0.00064839516 0.00044028723 0.00027147227 0.00015989528 0.000423288 0.0007264449
0.00069714274 0.0006361533 0.0007466348 0.00039734156 0.00065291004 0.0007023094 0.00041744494 0.0004375884
00000000: e2d2 673a da83 4539 d443 0e3a 9cf3 1d3a
00000010: 9828 0d3a d4f8 ae3a 4056 3d3a 9d0f 8a3a
00000020: 7f16 f939 7a2a 333a 7c6a 643a d56a 5a3a
00000030: 1b60 ce39 2d7e 8a3a ff83 d939 e8de f339
00000040: 7361 e839 31a0 c239 10f9 293a 5ad6 e639
00000050: 6454 8e39 90a9 2739 c1ec dd39 e46e 3e3a
00000060: 75c0 363a 86c3 263a d0b9 433a 4852 d039
00000070: 0d28 2b3a 301b 383a 83dc da39 1f6c e539

feature_extractor.dense_blocks.0.0.dense_layers.0.point_conv.conv_feats.0.weight f4 [32, 32, 1, 1]
-0.017717892 0.2222959 0.13492116 0.18944779 -0.01248441 -0.01064478 0.1552314 -0.5014103
0.2018629 0.0955881 0.012192989 0.2778076 0.063522674 0.12182758 -0.2206708 -0.021095484
0.24741653 0.20110887 -0.21897385 -0.38464832 0.03656638 0.049025208 0.3688927 -0.16187061
-0.035039343 -0.10519628 0.04853074 0.20007452 -0.38188455 -0.15646242 -0.0027191518 -0.18114877
0.23121303 0.13744025 0.050936725 0.24250536 -0.3843341 -0.08256916 0.058744933 0.27085072
0.17650178 0.09066246 0.12407307 -0.04653745 0.19099616 0.30016345 -0.07603819 0.3946607
0.13129117 -0.0026175682 0.13707158 0.33645248 0.32423642 0.06349235 0.052789096 -0.2229281
0.3814431 -0.3889132 0.16773 -0.16477448 -0.06654622 0.18628493 0.0009476458 0.5615011
-0.014515778 -0.022860514 -0.0014660466 -0.09868697 -0.06766332 -0.47952113 0.30962062 -0.20826316
0.15961657 0.28688014 0.11609118 0.22282241 0.24876983 0.119463645 -0.1172089 -0.06744362
-0.54585665 0.116633914 -0.25741413 -0.1903416 -0.22872889 -0.111101545 0.07352029 0.18935978
0.08488181 -0.06671659 0.052975282 -0.1703731 -0.08911865 -0.097900905 0.21323818 -0.04519097
-0.25744367 0.30666348 0.05433374 -0.12642787 0.33149797 -0.12041636 -0.19242337 -0.29460385
-0.031373106 0.11777022 0.06512646 0.18711634 0.065763906 -0.07731996 -0.043959618 -0.04273155
0.15599012 -0.17058004 -0.3147491 -0.13396086 -0.3239487 -0.13478203 0.13630548 -0.06734827
0.12836032 0.21356826 -0.16338067 -0.28890023 -0.37292776 -0.5277416 -0.016660998 -0.30564243
0.31956768 0.10165118 0.3628255 0.27820945 -0.0642501 -0.22979763 0.19921045 -0.101566054
-0.01179009 -0.041030094 -0.19470239 -0.18474458 0.33168045 0.22006562 -0.32669896 0.2772228
-0.32562703 0.13071981 -0.39221737 0.05568746 0.14033116 -0.045699522 -0.08293287 0.08875056
-0.30213583 -0.107396 0.07166299 -0.18923683 -0.10401742 0.035094857 0.025758663 0.11522993
0.06531789 0.45065677 0.30127516 0.18697944 -0.058578607 -0.03199683 0.2611474 -0.062122237
0.110984236 0.22445719 -0.2913223 0.13246724 0.39603734 0.14012583 -0.044196364 0.067983985
-0.06433304 0.3479896 -0.057436664 0.025418967 -0.027513066 0.22334254 0.41711408 -0.2015591
0.16150045 0.07876136 -0.104883 -0.24818267 -0.19846083 -0.19410343 0.18393959 0.10815334
0.18736213 0.36544973 0.28344595 0.07876092 -0.10240577 -0.30304882 0.46879444 0.10599871
0.3501164 0.10343848 0.432585 0.09598504 0.24188742 0.037355084 -0.06223696 0.19984698
0.021310931 0.28923532 -0.14130749 0.16365376 -0.09530372 0.13874401 0.19457266 -0.23920873
0.0697665 -0.19453728 0.19035189 -0.077668376 -0.048797123 -0.013564468 -0.07137909 -0.08169633
0.24090672 0.18492968 0.065018736 0.13294415 -0.11435835 -0.21396764 0.18625529 -0.11679929
-0.04061837 0.27870592 0.07186998 0.022853246 0.3542977 0.20895614 -0.2984742 -0.005922417
-0.038868684 -0.07093003 -0.2789408 -0.1598056 -0.24913682 0.12842807 0.024347162 0.10463638
0.06590768 0.01924144 -0.1501932 -0.5847423 -0.3469032 -0.012963216 0.2837066 0.10611669
00000000: 1d25 91bc 89a1 633e c628 0a3e 9afe 413e
00000010: 698b 4cbc 7167 2ebc fbf4 1e3e 6d5c 00bf
00000020: 26b5 4e3e b2c3 c33d 1ac5 473c cc3c 8e3e
00000030: 2d18 823d bd80 f93d 87f7 61be 70d0 acbc
00000040: c25a 7d3e 7cef 4d3e ae3a 60be a0f0 c4be
00000050: a1c6 153d a8ce 483d 81df bc3e 69c1 25be
00000060: 6a85 0fbd 2671 d7bd 2bc8 463d 56e0 4c3e
00000070: 5f86 c3be af37 20be cc33 32bb 107f 39be
00000080: 1cc3 6c3e 23bd 0c3e 07a3 503d 5353 783e
00000090: 70c7 c4be 051a a9bd 879e 703d f2ac 8a3e
000000a0: e2bc 343e 3dad b93d 061a fe3d 0e9e 3ebd
000000b0: 7f94 433e 06af 993e e9b9 9bbd f810 ca3e
000000c0: 3171 063e 828b 2bbb 7e5c 0c3e 8043 ac3e
000000d0: 5102 a63e 4708 823d 6139 583d 4447 64be
000000e0: 834c c33e a21f c7be 6ac1 2b3e a4ba 28be
000000f0: 6249 88bd 7ac1 3e3e 6f6b 783a 89be 0f3f
00000100: 96d3 6dbc f945 bbbc 5c28 c0ba 651c cabd
00000110: 1193 8abd cb83 f5be 9886 9e3e f042 55be
00000120: 8772 233e f4e1 923e 36c1 ed3d 8f2b 643e
00000130: 85bd 7e3e 5ba9 f43d 380b f0bd e11f 8abd
00000140: 43bd 0bbf c3dd ee3d c9cb 83be e9e8 42be
00000150: e837 6abe 3589 e3bd ce91 963d 88e7 413e
00000160: 84d6 ad3d b5a2 88bd 9cfc 583d 4976 2ebe
00000170: d783 b6bd 4580 c8bd 1c5b 5a3e 2b1a 39bd
00000180: a8cf 83be ff02 9d3e 0e8d 5e3d 4f76 01be
00000190: 1aba a93e da9c f6bd a20a 45be 51d6 96be
000001a0: 1681 00bd 8331 f13d 0561 853d 6d9b 3f3e
000001b0: 3aaf 863d ed59 9ebd 000f 34bd 4707 2fbd
000001c0: e0bb 1f3e 89ac 2ebe cb26 a1be 092d 09be
000001d0: 9bdc a5be 4d04 0abe aa93 0b3e e4ed 89bd
000001e0: e370 033e a3b1 5a3e 434d 27be bbea 93be
000001f0: 63f0 bebe 131a 07bf a57c 88bc 2a7d 9cbe
00000200: 609e a33e 7e2e d03d 44c4 b93e 7871 8e3e
00000210: 8e95 83bd 1250 6bbe d3fd 4b3e dd01 d0bd
00000220: 392b 41bc 2c0f 28bd 1060 47be af2d 3dbe
00000230: 05d2 a93e e258 613e 1645 a7be 26f0 8d3e
00000240: 96b8 a6be 6adb 053e b7d0 c8be 8918 643d
00000250: f9b2 0f3e 6c2f 3bbd b5d8 a9bd dbc2 b53d
00000260: 8cb1 9abe 6ff2 dbbd 0cc4 923d 4dc7 41be
00000270: 1607 d5bd a0bf 0f3d d503 d33c abfd eb3d
00000280: 63c5 853d 7cbc e63e bd40 9a3e 8a77 3f3e
00000290: 1ff0 6fbd 1c0f 03bd 1db5 853e e373 7ebd
000002a0: b44b e33d 1bd8 653e 3228 95be 7ea5 073e
000002b0: 68c5 ca3e 257d 0f3e 3f07 35bd 303b 8b3d
000002c0: 0ac1 83bd b12b b23e b542 6bbd 703b d03c
000002d0: 1563 e1bc e8b3 643e fa8f d53e 8265 4ebe
000002e0: 6060 253e a34d a13d e6cc d6bd 9923 7ebe
000002f0: 5139 4bbe 0dc3 46be a95a 3c3e 807f dd3d
00000300: dcdb 3f3e 3a1c bb3e d41f 913e 684d a13d
00000310: 1eba d1bd 3729 9bbe d305 f03e da15 d93d
00000320: 7542 b33e 8ed7 d33d c87b dd3e ce93 c43d
00000330: 56b1 773e a501 193d 2fec 7ebd b0a4 4c3e
00000340: 4394 ae3c a716 943e e9b2 10be da94 273e
00000350: 992e c3bd e912 0e3e 0e3e 473e 22f3 74be
00000360: bde1 8e3d c834 47be 9beb 423e 9910 9fbd
00000370: 7edf 47bd 813d 5ebc 332f 92bd 6850 a7bd
00000380: 40b0 763e 355e 3d3e 8b28 853d 8322 083e
00000390: b634 eabd 551a 5bbe b5b9 3e3e 7734 efbd
000003a0: 735f 26bd 8bb2 8e3e 9130 933d bb36 bb3c
000003b0: 8266 b53e 99f8 553e 9cd1 98be d610 c2bb
000003c0: c534 1fbd c343 91bd 54d1 8ebe 14a4 23be
000003d0: b91d 7fbe a682 033e b373 c73c 994b d63d
000003e0: 9bfa 863d 39a0 9d3c 3fcc 19be acb1 15bf
000003f0: 4c9d b1be ab63 54bc fe41 913e b553 d93d

feature_extractor.dense_blocks.0.0.dense_layers.0.point_conv.conv_feats.0.bias f4 [32]
0.083077565 -0.2218681 -0.074048735 -0.09792545 -0.05960183 0.11019886 -0.14039312 -0.19590986
-0.0536829 -0.08767325 -0.17924081 0.064068675 -0.14970458 -0.1741818 0.060533643 0.07292099
-0.17724037 0.24862486 -0.04328575 -0.11424968 0.058081485 -0.0003682832 -0.020087825 0.05699099
0.13978861 -0.1011137 -0.04986924 0.15726843 -0.22892125 -0.029594168 -0.06727245 0.06546425
00000000: 9224 aa3d 6431 63be dda6 97bd 238d c8bd
00000010: 0c21 74bd f1af e13d 37c3 0fbe 989c 48be
00000020: 9ae2 5bbd 088e b3bd e78a 37be 7036 833d
00000030: 284c 19be b75c 32be 20f2 773d 9a57 953d
00000040: 807e 35be 8497 7e3e 664c 31bd bcfb e9bd
00000050: dae6 6d3d 2216 c1b9 398f a4bc 626f 693d
00000060: bf24 0f3e b314 cfbd b043 4cbd fa0a 213e
00000070: 556a 6abe 786f f2bc 23c6 89bd 1f12 863d

feature_extractor.dense_blocks.0.0.dense_layers.0.point_conv.conv_feats.1.weight f4 [32]
0.7330246 0.62698185 0.7141609 0.32278225 0.9194262 1.1331964 0.9963695 0.8394521
0.70801866 0.82640123 0.8232545 0.8450794 0.7337414 0.96923685 0.8308303 0.51811457
0.94222647 0.80293804 0.6989325 0.98617786 0.68067575 1.2225895 0.90983963 0.9011822
0.30161497 1.1466703 0.9602184 0.82745147 0.4706774 0.7235023 0.38199502 0.51491654
00000000: 80a7 3b3f e281 203f 40d3 363f b743 a53e
00000010: 845f 6b3f 940c 913f 1212 7f3f 55e6 563f
00000020: b640 353f 088f 533f cfc0 523f 2057 583f
00000030: 7ad6 3b3f e81f 783f 4bb1 543f 28a3 043f
00000040: c135 713f 598d 4d3f 3eed 323f 2776 7c3f
00000050: c440 2e3f d07d 9c3f 40eb 683f e0b3 663f
00000060: 476d 9a3e 18c6 923f e0d0 753f dcd3 533f
00000070: a1fc f03e 7237 393f da94 c33e 92d1 033f

feature_extractor.dense_blocks.0.0.dense_layers.0.point_conv.conv_feats.1.bias f4 [32]
0.7504837 0.8627663 0.17948781 1.1175079 0.27777815 0.83045727 0.040911898 0.53080904
0.7406689 0.032153547 0.5824447 -0.008978228 0.9301167 -0.3129787 0.58704865 1.1842916
-0.20830497 0.6343455 1.0318333 0.070339926 0.8044945 0.27998966 0.50063694 -0.330924
1.1592573 -0.24496081 0.7084615 0.5093219 1.1646006 -0.33861235 1.3913468 1.0798457
00000000: b31f 403f 41de 5c3f a7cb 373e 800a 8f3f
00000010: f038 8e3e d998 543f 3c93 273d 1ae3 073f
00000020: 7a9c 3d3f 70b3 033d 191b 153f 6b19 13bc
00000030: 211c 6e3f bf3e a0be d248 163f de96 973f
00000040: e64d 55be 7764 223f 1d13 843f 610e 903d
00000050: 5af3 4d3f ce5a 8f3e be29 003f df6e a9be
00000060: 8b62 943f 02d7 7abe bc5d 353f ec62 023f
00000070: a211 953f 995e adbe a717 b23f 6238 8a3f

feature_extractor.dense_blocks.0.0.dense_layers.0.point_conv.conv_feats.1.running_mean f4 [32]
-0.068940125 0.6977104 -0.63877296 -1.167036 -0.42054123 0.38642564 0.32924667 -0.85335815
-0.10842031 0.4871447 -0.6936306 0.58989483 -1.025778 0.13692816 -0.29952657 -1.187184
0.77808976 -0.2790084 0.15372305 -0.30327007 -0.18120557 0.8688224 0.2625649 0.72077537
0.556081 0.8916622 -0.24429676 0.23849075 -1.2261721 1.0368823 -0.2782628 -0.615627
00000000: 7b30 8dbd 269d 323f a086 23bf 7061 95bf
00000010: 2e51 d7be 95d9 c53e 0593 a83e ae75 5abf
00000020: 780b debd 086b f93e c691 31bf 5903 173f
00000030: b24c 83bf e536 0c3e 8c5b 99be a5f5 97bf
00000040: e430 473f 30da 8ebe 9369 1d3e 3746 9bbe
00000050: f48d 39be 256b 5e3f e86e 863e bc84 383f
00000060: 535b 0e3f f943 643f ee28 7abe eb36 743e
00000070: 35f3 9cbf 8fb8 843f 7678 8ebe bb99 1dbf

feature_extractor.dense_blocks.0.0.dense_layers.0.point_conv.conv_feats.1.running_var f4 [32]
1.3639265 2.8785837 1.0118749 0.8414457 1.9952683 2.594899 2.9627323 1.5132949
2.2293181 1.5937623 1.2896502 2.388539 3.1464431 1.7143975 0.76490796 4.658971
1.6233654 3.246277 3.602789 1.1849872 2.5492375 1.8436431 2.573716 1.9842024
1.0568922 2.7062216 1.8731971 2.6972387 2.8459299 2.0947604 2.5304983 2.3235211
00000000: 2595 ae3f b73a 3840 1e85 813f fc68 573f
00000010: f464 ff3f d312 2640 689d 3d40 a6b3 c13f
00000020: 26ad 0e40 6700 cc3f 4213 a53f d3dd 1840
00000030: 535f 4940 6171 db3f 02d1 433f 4a16 9540
00000040: 70ca cf3f 01c3 4f40 1894 6640 a9ad 973f
00000050: b526 2340 7ffc eb3f c3b7 2440 58fa fd3f
00000060: 3e48 873f bc32 2d40 ecc4 ef3f 8f9f 2c40
00000070: b723 3640 8e10 0640 aff3 2140 92b4 1440

feature_extractor.dense_blocks.0.0.dense_layers.0.point_conv.post_conv.0.weight f4 [32, 32, 1, 1]
-0.37846884 -0.017578851 -0.46163628 -0.1672736 0.11944331 -0.12407254 0.2501553 0.1231456
-0.17000526 0.10257915 -0.052899566 -0.052233547 -0.054999303 -0.07939537 0.1125288 -0.44635725
0.014935655 0.011554404 -0.44767386 0.10078036 0.2575331 -0.17697343 -0.13666543 -0.08171059
0.15264222 -0.057753317 -0.34918568 -0.463713 -0.4939761 0.16467994 -0.5471601 0.26559937
0.04712217 -0.02317878 0.12192874 -0.2314358 0.24951047 -0.027384605 0.15497139 -0.004379224
0.23964885 -0.09542527 -0.11757906 0.21473 0.028444024 0.34552753 -0.16277133 0.0897628
0.09273357 0.2119919 -0.06753409 0.33713853 0.103972144 0.33200985 0.3678227 0.5460087
0.12265257 0.36255896 -0.25863412 -0.14222981 0.10753163 0.13315704 -0.0036024558 -0.098285
0.21745856 0.0663022 -0.14083436 -0.23246992 0.07241481 -0.19574404 0.33325997 0.1620572
0.046632636 -0.0090051005 -0.041427962 0.0829351 -0.19981907 0.31826535 -0.26884866 0.29736143
0.25719848 0.3167451 0.06915844 0.22011873 -0.08876804 0.33243304 0.15587868 0.11925562
0.23676462 0.36769316 -0.3568395 0.07439834 -0.16645886 0.11884956 -0.19650176 0.23985131
0.20148224 -0.344021 -0.32826692 -0.1322603 -0.10939335 0.011294483 -0.15305121 -0.45900676
-0.37249038 -0.05195733 -0.23781353 -0.1171554 -0.3809414 -0.045990326 0.014973113 0.049413204
0.009762519 -0.50139964 -0.17580158 -0.42927808 -0.29657692 0.022972483 0.090822056 0.12747616
0.0011037774 -0.1967154 -0.5239781 -0.060007732 0.03338773 -0.07416043 -0.6375308 -0.3325698
0.1182132 0.0061257076 0.14628734 0.27712855 0.010841353 -0.20623279 0.1252834 -0.066703595
0.22877477 0.110910945 0.14235432 -0.29079157 -0.1682179 -0.17481962 0.16275916 -0.18741822
0.120640956 -0.31090245 -0.12454022 -0.13033491 0.056270022 0.25931793 0.26310733 -0.19072622
0.22170404 -0.26321328 0.17215383 -0.009643368 0.51311505 -0.093077585 0.27605924 -0.17053853
-0.18008502 -0.40482238 0.054715123 -0.028257793 -0.07055807 -0.48830894 0.14018995 -0.28083384
0.015387445 -0.098000534 -0.30636585 -0.30358842 -0.18611032 -0.08216131 0.23175775 -0.45119962
0.16578305 -0.017769847 0.060517695 -0.25004768 -0.46892172 -0.05930358 0.005789678 0.15998815
-0.11646468 -0.023054378 0.07179721 0.05632827 -0.19488734 -0.36063358 0.06979484 -0.3720897
0.059826173 -0.15450308 -0.044749983 0.22502318 0.055174902 0.37070298 0.13150062 0.07769374
-0.04338242 0.119974025 0.11632871 0.17588466 -0.016647022 -0.37604204 0.19871657 0.22438067
-0.06918407 0.09886634 0.17148757 -0.17054729 0.1853689 -0.001699833 -0.032732375 -0.25201452
0.117664635 0.1280533 0.20250688 0.28136578 0.028365115 -0.033780374 0.21148257 0.35721028
0.19606546 0.14827082 -0.058178045 -0.279477 0.16424422 -0.03638235 0.3301434 0.04583734
-0.014152998 -0.061485257 -0.18473513 0.0484375 -0.07210317 0.27549654 -0.20204028 0.18159966
0.14285053 0.28215212 -0.10709236 0.30271065 0.09497623 0.27023375 0.25131953 0.20420983
0.1002365 0.37090075 -0.3790007 0.005901393 0.19962741 0.0646959 -0.06851752 0.21578878
00000000: abc6 c1be 8601 90bc 975b ecbe c549 2bbe
00000010: b29e f43d be19 febd 5b14 803e c333 fc3d
00000020: dc15 2ebe 0415 d23d 37ad 58bd d8f2 55bd
00000030: f346 61bd 0a9a a2bd 8075 e63d f088 e4be
00000040: adb4 743c af4e 3d3c 8235 e5be ef65 ce3d
00000050: 61db 833e 8638 35be 06f2 0bbe e257 a7bd
00000060: 3e4e 1c3e be8e 6cbd 77c8 b2be ca6b edbe
00000070: 6fea fcbe dca1 283e af12 0cbf a4fc 873e
00000080: 2d03 413d 6de1 bdbc c6b5 f93d 82fd 6cbe
00000090: ac7f 7f3e ae55 e0bc d2b0 1e3e 987f 8fbb
000000a0: 8266 753e 536e c3bd 4acd f0bd 2ee2 5b3e
000000b0: 7103 e93c fce8 b03e 87ad 26be 8fd5 b73d
000000c0: 19eb bd3d 6814 593e 504f 8abd 6c9d ac3e
000000d0: 59ef d43d 32fd a93e 4253 bc3e 3ac7 0b3f
000000e0: 4531 fb3d 54a1 b93e b16b 84be b1a4 11be
000000f0: 8b39 dc3d 525a 083e 2e17 6cbb a549 c9bd
00000100: 75ad 5e3e 73c9 873d e236 10be 980c 6ebe
00000110: 374e 943d 2071 48be 0da1 aa3e 53f2 253e
00000120: dd01 3f3d 218a 13bc 5eb0 29bd e1d9 a93d
00000130: 5f9d 4cbe adf3 a23e 88a6 89be c23f 983e
00000140: 85af 833e 6a2c a23e f1a2 8d3d ce66 613e
00000150: 05cc b5bd aa34 aa3e a99e 1f3e 4a3c f43d
00000160: 6d72 723e 4742 bc3e abb3 b6be 285e 983d
00000170: 3174 2abe 6667 f33d c237 49be 959b 753e
00000180: 5c51 4e3e 8523 b0be 9a12 a8be 3e6f 07be
00000190: 9f09 e0bd 7f0c 393c 75b9 1cbe ef02 ebbe
000001a0: 0fb7 bebe 36d1 54bd 6485 73be 2cef efbd
000001b0: c00a c3be 5a60 3cbd ca51 753c 8065 4a3d
000001c0: f9f2 1f3c ba5b 00bf 5405 34be 56ca dbbe
000001d0: eed8 97be ca30 bc3c ea00 ba3d 1c89 023e
000001e0: a0ac 903a c36f 49be 6e23 06bf abca 75bd
000001f0: 93c1 083d 6ce1 97bd 3835 23bf 9746 aabe
00000200: c319 f23d 29ba c83b 59cc 153e cbe3 8d3e
00000210: ee9f 313c b02e 53be 4b4a 003e e59b 88bd
00000220: ef43 6a3e 4725 e33d 55c5 113e a2e2 94be
00000230: 5041 2cbe ea03 33be 56aa 263e 90ea 3fbe
00000240: 9b12 f73d 9b2e 9fbe f10e ffbd 8476 05be
00000250: 657b 663d 52c5 843e 01b6 863e bc4d 43be
00000260: 6206 633e e4c3 86be 1849 303e 38ff 1dbc
00000270: 825b 033f 769f bebd a357 8d3e a7a1 2ebe
00000280: 3568 38be e144 cfbe f71c 603d e37c e7bc
00000290: c080 90bd a103 fabe f48d 0f3e 74c9 8fbe
000002a0: 9f1b 7c3c 81b4 c8bd fcdb 9cbe f16f 9bbe
000002b0: b493 3ebe 3044 a8bd e751 6d3e a303 e7be
000002c0: 08c3 293e 1292 91bc 67e1 773d 4006 80be
000002d0: 8216 f0be 50e8 72bd 57b7 bd3b efd3 233e
000002e0: 0985 eebd 89dc bcbc 6a0a 933d 79b8 663d
000002f0: 8c90 47be f7a4 b8be 99f0 8e3d 8b82 bebe
00000300: 4a0c 753d 0e36 1ebe c24b 37bd 7a6c 663e
00000310: 14ff 613d c8cc bd3e 19a8 063e e51d 9f3d
00000320: c4b1 31bd f1b4 f53d bf3d ee3d 1c1b 343e
00000330: 565f 88bc 9588 c0be 5b7c 4b3e 0cc4 653e
00000340: 61b0 8dbd 707a ca3d 709a 2f3e f3a3 2ebe
00000350: 58d1 3d3e eecc deba 6212 06bd 0c08 81be
00000360: 28fa f03d 6720 033e f75d 4f3e 2d0f 903e
00000370: f55d e83c 4a5d 0abd e38e 583e 44e4 b63e
00000380: 62c5 483e 4ed4 173e 1a4c 6ebd 9c17 8fbe
00000390: a32f 283e a905 15bd 8e08 a93e efbf 3b3d
000003a0: fae1 67bc f7d7 7bbd 352b 3dbe 6666 463d
000003b0: d4aa 93bd e20d 8d3e a6e3 4ebe 43f5 393e
000003c0: 6947 123e 3e76 903e 3d53 dbbd e4fc 9a3e
000003d0: e682 c23d 145c 8a3e f4ac 803e 621c 513e
000003e0: cb48 cd3d b4e6 bd3e 610c c2be 7960 c13b
000003f0: 216b 4c3e 497f 843d ea52 8cbd bcf7 5c3e

feature_extractor.dense_blocks.0.0.dense_layers.0.point_conv.post_conv.0.bias f4 [32]
-0.18919791 -0.13013422 0.1318163 -0.018186286 -0.09420579 -0.028581988 0.06550002 0.084005155
0.28995705 0.23311381 -0.15302265 -0.04595897 -0.05629625 -0.07438122 -0.07727163 -0.1391412
0.260449 0.25410697 -0.007193907 0.30387145 -0.03607769 -0.3789369 -0.13944799 -0.12491409
-0.11656385 -0.24139117 0.07976565 -0.186001 -0.16803657 0.08864558 -0.14100607 -0.00018741302
00000000: 19bd 41be e841 05be dafa 063e 68fb 94bc
00000010: f7ee c0bd c624 eabc e024 863d e50a ac3d
00000020: 4075 943e 63b5 6e3e f8b1 1cbe 793f 3cbd
00000030: e696 66bd 2e55 98bd 9740 9ebd 087b 0ebe
00000040: 9259 853e 4f1a 823e deba ebbb 0a95 9b3e
00000050: 33c6 13bd 0404 c2be 74cb 0ebe f5d2 ffbd
00000060: 07b9 eebd 3f2f 77be 2c5c a33d 0c77 3ebe
00000070: c711 2cbe d08b b53d e563 10be 4d84 44b9

feature_extractor.dense_blocks.0.0.dense_layers.0.point_conv.post_conv.1.weight f4 [32]
1.1282636 0.45668206 0.47547615 1.0369914 0.8603335 0.75755405 0.85022354 0.51174116
0.6713347 1.3986111 0.83215183 0.8947644 0.9767711 0.606318 0.5909624 0.87835103
0.9849304 1.0520074 0.89185435 0.9058244 0.9112494 1.0792636 0.73591816 0.8886331
0.42184243 0.68044794 0.93110406 0.73370546 0.5210936 0.96478134 0.85191435 0.80410194
00000000: f16a 903f 3bd2 e93e 9c71 f33e 22bc 843f
00000010: d13e 5c3f 10ef 413f 40a8 593f 7801 033f
00000020: 97dc 2b3f b005 b33f e707 553f 480f 653f
00000030: ac0d 7a3f a837 1b3f 5049 173f 9ddb 603f
00000040: 6624 7c3f 2ea8 863f 9150 643f 1ce4 673f
00000050: a447 693f 4f25 8a3f 2265 3c3f 757d 633f
00000060: bbfb d73e d631 2e3f d65c 6e3f 1fd4 3b3f
00000070: 6466 053f e9fb 763f 0f17 5a3f a0d9 4d3f

feature_extractor.dense_blocks.0.0.dense_layers.0.point_conv.post_conv.1.bias f4 [32]
-0.20378396 -1.4915125 -1.471557 -0.006524868 0.07682981 -0.22143029 -0.4421053 -1.3869834
0.106045604 0.019871952 -0.059619356 0.19675632 -0.16245636 -0.39677736 -0.24051094 -0.013903876
-0.29134133 -0.15671116 -0.15306263 -0.118419774 -0.03486212 -0.011067083 -0.09535285 -0.2423821
-1.2594601 -0.14793262 0.015320547 -0.0969629 -0.87380797 -0.005242714 -0.087858416 0.010286021
00000000: beac 50be e2e9 bebf fb5b bcbf 8fce d5bb
00000010: f358 9d3d 9fbe 62be a05b e2be ac88 b1bf
00000020: 702e d93d 81ca a23c 6d33 74bd 7d7a 493e
00000030: f65a 26be 6726 cbbe 8048 76be 15cd 63bc
00000040: b12a 95be e478 20be 73bc 1cbe 1186 f2bd
00000050: 95cb 0ebd b652 35bc 5b48 c3bd 0333 78be
00000060: fd35 a1bf a67b 17be 0803 7b3c 7c94 c6bd
00000070: e1b1 5fbf 13cb abbb 1def b3bd b386 283c

feature_extractor.dense_blocks.0.0.dense_layers.0.point_conv.post_conv.1.running_mean f4 [32]
-1.6984221 0.15459566 0.33288595 -1.9103755 0.43201363 -1.4081793 1.323387 0.43749017
-1.1745225 -1.8096098 -1.4991386 -1.1255004 -0.758557 -0.9471018 -0.940081 0.9357721
-0.41355452 -0.7647162 -0.8683775 -0.69648695 0.31717104 -1.3070295 -0.88304347 -1.0995036
0.40475693 -0.4943142 -1.2013519 0.001607665 -0.42914414 -1.0059273 -1.4557496 -0.8093365
00000000: e565 d9bf 534e 1e3e 0770 aa3e 2f87 f4bf
00000010: e430 dd3e 383f b4bf bf64 a93f b6fe df3e
00000020: c156 96bf 4ba1 e7bf c6e3 bfbf 6610 90bf
00000030: cb30 42bf 4375 72bf 26a9 70bf c38e 6f3f
00000040: 6bbd d3be 71c4 43bf fd4d 5ebf f84c 32bf
00000050: 3e64 a23e be4c a7bf 230f 62bf 89bc 8cbf
00000060: 4d3c cf3e c016 fdbe e6c5 99bf 49b8 d23a
00000070: c8b8 dbbe 3ac2 80bf 0156 babf ad30 4fbf

feature_extractor.dense_blocks.0.0.dense_layers.0.point_conv.post_conv.1.running_var f4 [32]
2.5834951 0.61566806 1.0438178 3.0934916 2.09783 2.078294 0.9922112 0.85071105
2.9485035 2.061338 3.021405 0.9795713 3.2060552 2.9203718 3.3054805 1.5459472
1.6703601 1.4632134 1.5698403 2.2204967 1.5636215 1.8901402 3.0841782 2.1399846
0.9029549 0.842714 1.6333107 1.7558744 1.1857321 2.7553184 1.9383091 0.9765961
00000000: fc57 2540 6c9c 1d3f d29b 853f c4fb 4540
00000010: d942 0640 c502 0540 8e01 7e3f 33c8 593f
00000020: 48b4 3c40 f6ec 0340 b35e 4140 2fc5 7a3f
00000030: 0230 4d40 5fe7 3a40 fe8c 5340 99e1 c53f
00000040: 5cce d53f 944a bb3f 87f0 c83f 9e1c 0e40
00000050: c024 c83f 1df0 f13f 2d63 4540 82f5 0840
00000060: 0d28 673f 1bbc 573f 5310 d13f 7ec0 e03f
00000070: 12c6 973f 2357 3040 831a f83f 3402 7a3f

feature_extractor.dense_blocks.0.0.dense_layers.1.conv_bottle.0.weight f4 [32, 64, 1]
-0.10287693 3.437235e-05 -0.014376197 -0.12560801 0.22357824 -0.046382345 0.052373912 -0.120613955
0.10064497 0.010936349 0.10215875 -0.23315464 -0.0049884613 -0.006264215 -0.053560436 0.07524966
-0.013654139 -0.28707024 0.06688491 0.06673415 0.019531503 0.035941735 0.10712153 0.041773286
0.0017917076 0.024075763 -0.06359339 0.06339819 0.25670406 0.16735579 -0.19462234 0.06492422
0.284231 -0.0019817133 0.028384324 -0.27349123 -0.16684961 0.11350841 -0.13678634 -0.13414198
0.030070186 -0.050475862 -0.009160305 -0.011792197 -0.4732036 0.20656125 0.3548529 0.14323586
-0.1149858 0.0910667 -0.07865687 -0.3333025 -0.008431984 -0.011150814 0.24688002 -0.6578882
0.028581647 -0.019119225 0.17855449 0.225079 0.05691357 0.018137356 -0.31752998 0.24560483
-0.06101237 0.05581007 0.15808736 0.07045513 0.36771497 -0.11207044 0.23590425 -0.07544432
0.24544953 0.09828632 -0.15254958 -0.20869778 -0.013919987 0.28160483 0.0780355 0.1794431
0.15958066 -0.06895279 0.31942096 0.34450603 0.008281479 0.0975633 0.35205466 0.10257839
0.13141955 -0.17912175 0.00422163 0.20453382 0.14667687 0.0041284924 -0.12189848 0.25077033
-0.4277398 0.22933252 -0.0061524278 0.22236103 -0.09181091 0.23988141 -0.06553708 0.02277055
0.04484272 0.0144954445 0.31226233 0.3389471 -0.20839396 0.09454743 0.013533192 -0.11807784
0.11755947 0.25030974 0.0007238267 0.10444402 0.280048 -0.08983749 -0.033236615 0.16507605
0.05678034 -0.2752062 -0.2575903 -0.20059928 0.15638071 0.15478201 -0.55152154 0.27936912
0.008386668 -0.02137507 -0.13507067 0.07098537 -0.1314603 0.18180728 0.07868267 -0.28729686
-0.028463509 -0.20611523 -0.07378704 0.20510563 0.07131632 0.13615601 -0.20474689 -0.07668663
0.14143191 -0.024726275 0.17194813 -0.07577975 -0.12817992 -0.26283875 0.17701514 -0.16376364
-0.040537056 0.08527981 -0.0367736 -0.2826577 -0.09684526 0.020278243 0.24674596 -0.012816747
0.23686215 0.16256015 0.10484033 0.10207392 -0.05825928 -0.48178357 -0.21783707 0.15017189
-0.33785272 -0.75862694 -0.037074573 -0.08995278 0.17253856 -0.13976896 -0.048809312 -0.06256696
0.040241767 0.0378514 0.013799532 -0.0213949 -0.13279423 0.24462669 -0.11642266 -0.06170694
0.10386135 0.0056804516 0.3240764 -0.3247383 0.15184586 -0.19681065 0.17912142 0.02049364
0.33111575 0.11344869 -0.192218 0.10472863 0.04133142 0.009712469 -0.03824107 -0.024169585
-0.0051650177 -0.16243328 0.024621772 0.23212366 0.062459532 0.032865424 -0.21585509 -0.21537662
0.13530253 -0.10898908 -0.0026376923 0.0063782483 -0.097107984 -0.25243473 0.21573472 -0.27287358
0.11006598 0.0086644 0.18812063 -0.28903455 -0.21070957 -0.009828011 0.39627847 -0.094206244
0.09217424 0.3548319 0.34658995 0.033973325 0.058571193 0.1403647 -0.35024577 0.16417706
0.17180946 0.070084274 -0.07910416 0.09150552 -0.13417658 0.13929823 -0.09449927 -0.018134676
0.00020565667 0.045939106 -0.0149423685 -0.0056041214 0.039324075 0.036670852 -0.30019647 -0.2172954
0.25011617 0.021584852 -0.0015989337 -0.13843885 0.17670104 -0.05738848 0.08853608 0.053552076
00000000: 24b1 d2bd 082b 1038 248a 6bbc 639f 00be
00000010: b2f1 643e 6afb 3dbd 0786 563d 7304 f7bd
00000020: f31e ce3d 5f2e 333c 9b38 d13d 17c0 6ebe
00000030: 3f76 a3bb 0b44 cdbb 3062 5bbd 7e1c 9a3d
00000040: 9cb5 5fbc dffa 92be f5fa 883d eaab 883d
00000050: 8800 a03c a437 133d 8862 db3d 771a 2b3d
00000060: bbd7 ea3a 893a c53c 403d 82bd e9d6 813d
00000070: b76e 833e 515f 2b3e 144b 47be fdf6 843d
00000080: ba86 913e a2df 01bb 3e86 e83c 0b07 8cbe
00000090: a0da 2abe 1977 e83d b811 0cbe 845c 09be
000000a0: c055 f63c c7bf 4ebd 1b15 16bc 0f34 41bc
000000b0: be47 f2be cb84 533e 48af b53e 6cac 123e
000000c0: ad7d ebbd 2e81 ba3d da16 a1bd a0a6 aabe
000000d0: 4e26 0abc e7b1 36bc 1ece 7c3e 5c6b 28bf
000000e0: 0f24 ea3c ec9f 9cbc fdd6 363e 1c7b 663e
000000f0: 341e 693d cb94 943c 4a93 a2be d57f 7b3e
00000100: 1be8 79bd 1a99 643d a7e1 213e c74a 903d
00000110: 2345 bc3e 3085 e5bd e290 713e 8d82 9abd
00000120: 1f57 7b3e 574a c93d f535 1cbe dfb4 55be
00000130: a810 64bc 822e 903e 14d1 9f3d efbf 373e
00000140: 1d69 233e 1f37 8dbd 258b a33e 1863 b03e
00000150: 0aaf 073c 44cf c73d 8240 b43e 9e14 d23d
00000160: d992 063e b16b 37be 9955 8a3b 5071 513e
00000170: 7632 163e 4e48 873b e9a5 f9bd f864 803e
00000180: b600 dbbe 25d6 6a3e 4e9a c9bb 9cb2 633e
00000190: 5c07 bcbd 79a3 753e 4e38 86bd 4e89 ba3c
000001a0: 00ad 373d 4d7e 6d3c d9e0 9f3e 798a ad3e
000001b0: 3a65 55be 15a2 c13d 52ba 5d3c cbd2 f1bd
000001c0: 05c3 f03d 9928 803e 30bf 3d3a bfe6 d53d
000001d0: 7462 8f3e b8fc b7bd 1e23 08bd b209 293e
000001e0: 8092 683d d4e7 8cbe e0e2 83be e669 4dbe
000001f0: 4422 203e 2d7f 1e3e 8430 0dbf 7809 8f3e
00000200: 3c68 093c c51a afbc f74f 0abe c760 913d
00000210: 879d 06be b02b 3a3e 6124 a13d 9318 93be
00000220: 4e2c e9bc df0f 53be a91d 97bd 3607 523e
00000230: 4a0e 923d 7b6c 0b3e 2ba9 51be e10d 9dbd
00000240: 87d3 103e c28e cabc 2c13 303e 6a32 9bbd
00000250: 9941 03be cd92 86be 7543 353e a8b1 27be
00000260: 2f0a 26bd 2ea7 ae3d ea9f 16bd 83b8 90be
00000270: cf56 c6bd 8f1e a63c f9aa 7c3e 55fd 51bc
00000280: fe8b 723e 2b76 263e 87b6 d63d 220c d13d
00000290: 48a1 6ebd 56ac f6be ae10 5fbe a9c6 193e
000002a0: 08fb acbe 6035 42bf 82db 17bd 2a39 b8bd
000002b0: f3ad 303e 981f 0fbe 46ec 47bd 1b23 80bd
000002c0: 8dd4 243d 120a 1b3d 6f17 623c 5b44 afbc
000002d0: 36fb 07be 6b7f 7a3e 016f eebd 6bc0 7cbd
000002e0: 42b5 d43d 1523 ba3b 58ed a53e 1944 a6be
000002f0: 7b7d 1b3e bb88 49be 9b6b 373e 47e2 a73c
00000300: 0188 a93e c957 e83d ccd4 44be f77b d63d
00000310: 234b 293d 0c21 1f3c aba2 1cbd 4bff c5bc
00000320: 4f3f a9bb e954 26be 99b3 c93c d3b1 6d3e
00000330: 91d5 7f3d e59d 063d 1e09 5dbe b08b 5cbe
00000340: bf8c 0a3e ab35 dfbd 22dd 2cbb a000 d13b
00000350: 8de0 c6bd 203f 81be 90e9 5c3e 16b6 8bbe
00000360: 466a e13d 21f5 0d3c b2a2 403e 56fc 93be
00000370: 40c4 57be aa05 21bc 03e5 ca3e 34ef c0bd
00000380: d9c5 bc3d 87ac b53e 3d74 b13e 9d27 0b3d
00000390: 59e8 6f3d c4bb 0f3e 6a53 b3be 081e 283e
000003a0: d2ee 2f3e 5888 8f3d 5d01 a2bd 3f67 bb3d
000003b0: 9665 09be 32a4 0e3e d588 c1bd 2c8f 94bc
000003c0: 8ba5 5739 a52a 3c3d d6d0 74bc c7a2 b7bb
000003d0: 4812 213d 2d34 163d 5ab3 99be af82 5ebe
000003e0: 3a0f 803e b7d2 b03c 5093 d1ba eac2 0dbe
000003f0: 1ef1 343e 2f10 6bbd 6852 b53d 6c59 5b3d

feature_extractor.dense_blocks.0.0.dense_layers.1.conv_bottle.0.bias f4 [32]
-0.07661666 0.024654374 0.046340045 -0.1043641 0.037831787 -0.07241181 0.11587047 0.02950527
-0.14873256 0.010317735 -0.12805319 0.05321052 -0.048760585 0.036712896 -0.1346181 -0.0148564195
-0.07787614 -0.09894989 0.11273615 -0.020786332 0.046012443 0.063241385 -0.032835666 -0.09612305
-0.033571184 0.096615136 0.09465897 -0.05746483 -0.040040705 0.049006395 -0.01844744 0.056223806
00000000: 32e9 9cbd f8f7 c93c 0fcf 3d3d d8bc d5bd
00000010: 81f5 1a3d a54c 94bd 7f4d ed3d 09b5 f13c
00000020: 594d 18be b80b 293c 6020 03be 46f3 593d
00000030: 2eb9 47bd 4360 163d 54d9 09be 5768 73bc
00000040: 877d 9fbd 3da6 cabd 36e2 e63d 1948 aabc
00000050: 8b77 3c3d b384 813d b17e 06bd 29dc c4bd
00000060: f081 09bd 28de c53d 90dc c13d 3e60 6bbd
00000070: b901 24bd eeba 483d 161f 97bc ef4a 663d

feature_extractor.dense_blocks.0.0.dense_layers.1.conv_bottle.1.weight f4 [32]
0.98872745 1.004228 0.90325916 0.73138624 1.1662221 0.8460524 0.87669575 0.961287
1.2362878 0.44594827 1.339839 1.239213 1.1072493 0.96855605 0.78596574 0.57785076
0.75312465 0.89048463 1.0411948 1.1431701 0.65940905 0.7770981 1.0721065 0.8396339
1.0343264 0.7223318 0.6433553 0.82583517 0.92822295 1.1226963 0.7699632 1.0891689
00000000: 3e1d 7d3f 8b8a 803f fe3b 673f 213c 3b3f
00000010: c446 953f e496 583f 226f 603f e816 763f
00000020: ae3e 9e3f 5553 e43e d87f ab3f 889e 9e3f
00000030: 58ba 8d3f 4af3 773f 0d35 493f 07ee 133f
00000040: c7cc 403f cdf6 633f df45 853f 6653 923f
00000050: 08cf 283f e7ef 463f c93a 893f 3ff2 563f
00000060: cf64 843f bdea 383f efb2 243f ef69 533f
00000070: 05a0 6d3f 83b4 8f3f 4f1c 453f e369 8b3f
